model/keypoint_classifier/keypoint_classifier.tflite (tflite, 6224 bytes, 6 tensors)

sequential/dense/BiasAdd/ReadVariableOp/resource f4 [20]
000000 ac 08 30 bf 83 69 98 be 86 72 9a be d0 8a 42 be
       -0.6876323 -0.29768 -0.301655 -0.18998265
000010 4e 10 96 be cb 6d ee be 43 e5 65 be da 48 9f be
       -0.29309314 -0.4656814 -0.22450738 -0.3111027
000020 77 cf cc be bf c1 12 bf fb 4f c8 be f2 13 f3 be
       -0.40002033 -0.57326883 -0.3912352 -0.47476155
000030 0e f6 f2 bd 2b f0 d3 be 13 ff 48 bf f6 a3 43 bf
       -0.118633375 -0.4139417 -0.7851421 -0.7642206
000040 9a 78 c3 be 9b b9 cb be 81 06 1b bf c4 be d0 be
       -0.3817795 -0.39790043 -0.605568 -0.40770543

sequential/dense_1/BiasAdd/ReadVariableOp/resource f4 [10]
000000 b3 ad 31 3d ad fe 11 3e a1 7e df 3e fc 7b 36 3f
       0.043378543 0.14257307 0.43651298 0.71282935
000010 6c ec 6e 3c 11 8a 1a 3f 76 ef 4c bd bd 05 2b 3e
       0.014582735 0.6036692 -0.050033055 0.16701408
000020 1b bc 21 bc e7 d5 a1 bb
       -0.009871508 -0.004938829

sequential/dense_2/BiasAdd/ReadVariableOp/resource f4 [3]
000000 3c b3 90 be bf 50 49 be b4 90 dd 3e
       -0.28261745 -0.19659708 0.43274462

sequential/dense/MatMul f4 [20, 42]
000000 88 d5 36 3d 88 cc 97 bd 2d 0f ec 3e 13 8c 12 bf
       0.044637233 -0.07412058 0.46105328 -0.57244986
000010 45 d8 a3 3d cb f0 cd be 7d 50 9a 3e 3a e7 f0 be
       0.080002345 -0.40222773 0.30139533 -0.47051412
000020 54 94 85 3e 53 46 a9 be 91 b8 60 3e 75 61 66 be
       0.26089728 -0.33061466 0.21945406 -0.22498114
000030 46 84 0a 3e 48 d6 2e 3c 6c 35 21 be 42 29 3e 3e
       0.13527021 0.010671206 -0.15743035 0.18570426
000040 96 62 a8 be 7c 25 98 3e 5a 36 ad 3e 68 28 81 be
       -0.32887715 0.29716098 0.3383053 -0.2522614
000050 7d d5 38 3e e0 9c f0 bd e1 c8 8d 3c 39 99 c5 3d
       0.1805019 -0.117486715 0.0173077 0.096483655
000060 43 51 7d bd e9 63 9b 3d 0a 69 eb 3d c2 2d 5a be
       -0.061845075 0.07587416 0.11494644 -0.21306518
000070 15 e0 08 3d 84 4d 73 be 97 50 14 3e dc 8e 66 3d
       0.033416826 -0.23760039 0.14483868 0.056288585
000080 35 69 99 3d c8 51 04 3e c2 5e ba 3c 23 57 88 be
       0.0749077 0.12921822 0.022750262 -0.2662898
000090 99 33 04 bd 1c 28 5e be 12 e3 f7 3d 3c db 81 3c
       -0.03227577 -0.21694988 0.12103857 0.01585161
0000a0 36 f0 6f bd 1e 82 b2 3d 3a 49 cb bd b8 e6 61 be
       -0.058578692 0.08716224 -0.09926076 -0.22060668
0000b0 80 d5 24 3e 48 c7 6a 3e 92 bb 21 3d f3 a3 ae 3d
       0.16097069 0.22927582 0.03948552 0.085273646
0000c0 90 9d 70 3d ae 79 f7 3d ba a3 e9 3d 2e c9 bb 3d
       0.058744013 0.120837554 0.114081815 0.09169231
0000d0 4b 8c 33 bc 44 d9 78 3d 53 3c 74 bc 6b 45 ba 3c
       -0.010958741 0.060754076 -0.014906961 0.02273818
0000e0 81 bf bf bc b3 45 60 bc 26 9c e7 bc 51 53 15 bd
       -0.023406746 -0.013688493 -0.0282727 -0.03645641
0000f0 ad dd c0 bc 99 ca 4e 3d 28 1e 2c 3c 8d ce b2 3d
       -0.023543203 0.05048618 0.010505237 0.08730803
000100 a6 f9 27 3d 80 91 b8 3d 71 70 8f be ba e1 82 bf
       0.041009568 0.09012127 -0.28015473 -1.0225136
000110 07 ac fb 3c e2 d8 42 3d 1c 4b 88 3d c2 e9 e5 3c
       0.030721677 0.047570117 0.06654951 0.028065566
000120 eb 0b 1a 3e 3b a2 91 bd ef f9 da be 5f 59 52 3e
       0.15043609 -0.07111021 -0.4276881 0.20541905
000130 9e 76 04 3e 75 20 08 3e 9f 9a de 3d 59 be b8 3d
       0.12935874 0.13293631 0.108693354 0.09020681
000140 65 cf d8 bd 93 3a 15 3d f5 fb f8 bc ce 5f 0e be
       -0.10586432 0.036432814 -0.03039358 -0.13903734
000150 2f d5 08 be 86 c4 70 be 3b 59 10 3e 97 09 83 3e
       -0.13362573 -0.23512468 0.14096539 0.25593254
000160 c8 9b f7 3d eb 29 44 3b c0 05 d8 3e 09 09 7b bd
       0.1209026 0.0029932212 0.42191887 -0.061287913
000170 c0 06 0c 3f f7 4c b6 be a1 1b 9a bc 36 e8 d2 bc
       0.546978 -0.35605595 -0.018812003 -0.025745492
000180 76 bd cc 3c 84 f3 4d bd 20 4f 2c bd 64 41 96 bd
       0.024992686 -0.050281063 -0.042067647 -0.07336691
000190 8d c7 cd 3c 0f 23 de 3c 96 ab 19 be d0 70 69 3d
       0.025119567 0.027116327 -0.15006861 0.056992352
0001a0 49 a6 85 bc bd 72 a1 bc 83 cf 12 be fb 48 32 3e
       -0.016314643 -0.019708032 -0.14336972 0.17410652
0001b0 01 40 74 be 4e 2a ec 3d 2c e7 b1 3d 4d f2 90 bc
       -0.2385254 0.115315065 0.08686671 -0.017693663
0001c0 f8 c0 15 bd f4 8a 54 be 1a e3 b0 be 71 61 a6 bd
       -0.036560982 -0.20756131 -0.34548265 -0.08124054
0001d0 8f 3e ac be 2b 26 74 3e 33 fb 39 3e 84 2d c6 bd
       -0.33641478 0.23842685 0.18162231 -0.0967665
0001e0 06 4e 5f 3e 6a 9d ea bc 71 82 a3 be 37 ed 98 3e
       0.21807107 -0.028639514 -0.31935456 0.2986848
0001f0 80 a6 11 bf 71 bd ee 3e c4 ca 61 3e 7c ea 6d 3e
       -0.56894684 0.46628907 0.22050005 0.2323398
000200 1b 52 95 be ac dd 4d 3e 8d 22 89 be 77 bd 98 3e
       -0.29164204 0.20104092 -0.26784173 0.2983205
000210 1d 16 13 bd ef e8 7f 3e fc bb f5 3d 2a 7e 68 3e
       -0.03590976 0.24991201 0.11998746 0.22704378
000220 ca e5 11 be c5 32 20 bd 57 45 6c 3d fb 91 47 be
       -0.14247814 -0.039110918 0.057683315 -0.19489281
000230 69 41 aa 3e 3d 75 c9 be 5e 99 90 3e 74 eb f3 be
       0.3325303 -0.39347258 0.2824201 -0.47640574
000240 56 c1 9a bd 1e 6d d7 bc 28 ef ca 3c 77 5e ab 3d
       -0.07556407 -0.026297148 0.024772242 0.08367627
000250 16 1b a1 bd 51 94 27 3e 65 4a 3a be 12 47 06 3e
       -0.07866494 0.16365172 -0.18192442 0.13113049
000260 fb ba c1 3d a8 35 8f bd 4b e4 f8 bd 5b 02 ec 3d
       0.09459492 -0.06992656 -0.121529184 0.11523887
000270 37 dd 25 be 80 c3 39 3e 05 af 25 be 3c a2 40 3d
       -0.16197668 0.18140984 -0.16180046 0.04702972
000280 d7 2a 43 3e 6a 65 48 bd 4c c3 d4 3d 84 42 91 3d
       0.19059311 -0.04892484 0.103888124 0.07092765
000290 67 f3 0b 3d 0d ad ed 3d 3b 25 b6 bd 5e d7 74 3d
       0.034167673 0.116052724 -0.0889382 0.059775703
0002a0 56 b8 83 3e 70 df a6 3d d9 a7 54 3e e4 21 bb 3d
       0.25726575 0.08148086 0.20767154 0.091373235
0002b0 85 11 90 bd 48 26 58 3e d5 cb 83 be 1f d0 f0 3d
       -0.070345916 0.21108353 -0.2574145 0.11758446
0002c0 72 2e 8c be 82 ae 8c 3e 9a fc 3e 3e f6 40 e9 3c
       -0.27379185 0.2747689 0.18651047 0.028473359
0002d0 3a 97 98 bc df 78 2b 3b 93 18 cd 3c c2 39 46 3d
       -0.018626798 0.0026164574 0.025036132 0.048394926
0002e0 fb 60 45 3c 48 8f a5 3d 00 0e 22 bd e6 37 bb 3c
       0.012047048 0.08083969 -0.039564133 0.022853803
0002f0 52 a4 1d bd 55 30 cc 3d db 70 dd 3d 58 91 a1 be
       -0.038486786 0.09970156 0.10812541 -0.315562
000300 14 bf 9c 3e 61 64 12 bf 3d 5b 02 3d f5 7c 41 3d
       0.3061453 -0.57184416 0.031825293 0.04723831
000310 e2 b4 55 3b 2b 28 e7 3d 30 b7 89 3d f1 50 40 be
       0.0032609035 0.11286958 0.06724393 -0.18780877
000320 64 d6 0b 3f 44 e0 1f bf 61 ab 42 bd ea ac 59 3c
       0.5462401 -0.6245158 -0.04752672 0.013285855
000330 c7 64 c1 bc d4 0b 81 3d 10 45 af bc a2 d9 83 be
       -0.023607625 0.06301084 -0.021395236 -0.25751978
000340 3d 51 5c be 07 b8 0d bf ac 5a 5d 3e 10 10 3f bd
       -0.21515365 -0.5535893 0.2161662 -0.046646178
000350 7a f5 bd 3e f0 8b af be fa 38 dd 3e 22 34 9d be
       0.37101346 -0.3428645 0.43207532 -0.30703837
000360 c3 49 a2 3e a6 42 e1 be d4 e2 f4 3d c2 a5 23 bc
       0.316969 -0.4399616 0.119573265 -0.00998825
000370 fa b4 af 3e 84 2f 0d 3e 27 8c b2 3d 28 31 d0 bd
       0.34317762 0.13787657 0.08718138 -0.10165626
000380 f0 a1 8b be 97 ab 9e 3d ef 17 d8 be ab b6 2c 3e
       -0.27271986 0.07747572 -0.4220576 0.16866557
000390 8d 38 a3 3e bc 37 b3 3c d2 72 9e 3d 11 4a a7 bd
       0.31879082 0.021877162 0.07736744 -0.08168424
0003a0 9c 66 12 bc d0 83 f4 3d 34 ac d0 bd 41 c6 1e 3c
       -0.008935597 0.11939204 -0.10189095 0.009690822
0003b0 7c 09 fa 3e 97 10 d8 be 9d c8 31 3e 36 83 2d bb
       0.4883536 -0.42200157 0.17361684 -0.0026475913
0003c0 c4 79 4e 3d a0 ba ad 3d 8a 52 2e bd d0 3d b8 3d
       0.050409093 0.084828615 -0.042559184 0.08996165
0003d0 94 90 21 3e ac 2b 04 be 9e bd a1 bc 13 6f a0 bd
       0.15777808 -0.12907284 -0.019743737 -0.07833686
0003e0 76 6b 42 3d 01 a1 bd bb 60 4c 10 3d 5d 5c 89 3d
       0.047465764 -0.0057870154 0.035229087 0.0670707
0003f0 70 a2 4d be 2a 56 e2 bd d8 67 a6 be 22 86 0a be
       -0.20081496 -0.11051591 -0.32501101 -0.1352773

sequential/dense_1/MatMul f4 [10, 20]
000000 90 c9 de 3d 34 99 d1 3e 01 e9 87 3e 65 06 9a bd
       0.10878289 0.40937197 0.26544955 -0.07520751
000010 bb 57 59 bf b4 f4 08 be 92 2c bc 3e 62 bc ee 3e
       -0.8489949 -0.13374597 0.36752754 0.466281
000020 49 e2 25 3f c9 84 e3 3c 93 a0 88 3f a9 2e 3e 3f
       0.6479841 0.027773278 1.0674003 0.7428995
000030 12 7e 1b 3e a7 b3 30 3f d7 f3 e0 3d 4b aa df bd
       0.15184811 0.6902413 0.10984009 -0.10921153
000040 6b f5 fe 3d 3c fa 0d 3f 72 38 e4 3a c2 6a f9 3d
       0.124491535 0.5545995 0.0017411842 0.121785656
000050 77 92 36 3f 96 1c ff be 54 37 63 be a3 8d 28 be
       0.7131724 -0.49826497 -0.22189075 -0.1646028
000060 6d 20 fb bc f7 c0 c8 3e e2 80 05 3f f6 f4 3e be
       -0.03065511 0.3920972 0.52149785 -0.18648133
000070 83 93 48 be 21 2a 88 be b7 7b 88 be 8d 99 65 be
       -0.19587521 -0.26594642 -0.26656887 -0.22421856
000080 3c d5 a0 be 7c e4 d5 bc ac 44 1a 3f 9a 6d d7 3e
       -0.31412685 -0.026109926 0.60261035 0.42075807
000090 60 32 f3 3e 09 87 7c bd 59 f2 bb 3e c3 11 cb be
       0.4749937 -0.061652217 0.36708334 -0.3966199
0000a0 31 ea 62 be d1 fa 02 3f 45 0b 23 bd df dd 9d 3e
       -0.2215965 0.51163965 -0.03980567 0.30833337
0000b0 d6 66 a0 3e df da be 3d 60 8b c6 3e 48 86 d2 3e
       0.31328458 0.0931909 0.3877821 0.41118073
0000c0 e4 2a 33 bd d9 61 a7 be 94 37 8f 3e 4c 1b 87 3e
       -0.043742076 -0.3269184 0.2797209 0.26388013
0000d0 bf 9a 4a 3f 74 15 08 3e b8 96 b7 be 1e 05 0c bd
       0.79142374 0.13289434 -0.35857177 -0.034184568
0000e0 0a 56 5d 3e 72 ca a0 3e 47 ab 96 3e 24 59 8b be
       0.21614853 0.31404454 0.2942755 -0.27216446
0000f0 40 30 1f 3d c1 7e 1b bf 57 54 a4 be 76 38 b8 3e
       0.038864374 -0.60740286 -0.32095596 0.35980576
000100 f7 7c 12 bc a2 ec 21 be b6 c1 0e 3f 03 4b 1d be
       -0.008940927 -0.15812925 0.5576433 -0.15360646
000110 8d 17 8f be ee a3 45 3f 96 13 18 bf d0 fa ee be
       -0.27947655 0.7720326 -0.59404886 -0.4667573
000120 ff 0e 53 be 50 34 85 be fc e4 90 3d ca 5e 3d 3d
       -0.2061119 -0.26016474 0.07074925 0.046232976
000130 9f 04 94 3e d4 2e bc bc 83 61 88 3d 0f 3f 94 be
       0.28909776 -0.022971548 0.06659224 -0.2895436
000140 45 46 72 bf e2 c0 3f 3e b2 c6 9f 3d 7c af ca bb
       -0.9463847 0.18725923 0.0780157 -0.00618547
000150 23 a3 3b bd 37 8c 1d 3f 92 1d 0b 3d 59 5d 91 bd
       -0.045809876 0.61542076 0.033963747 -0.07097883
000160 4c df 68 3c a7 ea d0 3e 33 93 62 bd 95 22 0d 3d
       0.014213394 0.40804026 -0.05531616 0.034456808
000170 7d d4 c2 bd 74 32 2a 3d de 20 3e bf bf ad 0e 3f
       -0.09513185 0.041552022 -0.742689 0.55733865
000180 26 8a a6 3d 13 3f 06 be 1b 9d 12 3f 6b 65 b2 3e
       0.081318185 -0.13109998 0.57270974 0.34843
000190 d1 05 24 be d8 bf 5f bf cb ca 01 bf d7 95 00 3f
       -0.16017844 -0.87402105 -0.5070006 0.5022864
0001a0 cc 2f 5b bf df 43 1e be 14 41 c7 3e 25 e0 fb bd
       -0.8561981 -0.15455578 0.38916838 -0.122986116
0001b0 ff 1e d6 be 4d ac 82 be 66 9e 27 bf 3f a8 71 bf
       -0.41820523 -0.2552208 -0.6547607 -0.9439735
0001c0 26 3b 76 3e 22 80 68 be d7 58 06 bf 9c 99 4e be
       0.24046001 -0.22705129 -0.5247931 -0.20175785
0001d0 e4 34 8a 3e ba df 07 bf c3 6d ad be 07 3d d3 be
       0.26993477 -0.53075755 -0.33872804 -0.41257498
0001e0 19 b5 16 3e c3 a0 33 3e 26 d5 a3 3e 64 3a 61 bc
       0.14717521 0.17541794 0.31998557 -0.013746832
0001f0 7b 02 0d 3f 7d cd 07 bb 06 de 29 3e cc d3 be bd
       0.5508191 -0.0020721846 0.16588601 -0.09317741
000200 9c 50 12 3f 76 cb 00 3f 26 3a 46 3d 0e 89 69 3e
       0.5715425 0.50310457 0.0483953 0.22806188
000210 9f 90 2b be 47 d1 13 3c db 5b 37 3f d7 d2 7c 3e
       -0.16754387 0.009022064 0.71624535 0.24689804
000220 fe 9b f8 3d 77 ee c6 3e d9 f8 50 3e 17 bf 1e 3f
       0.12139128 0.3885381 0.20407428 0.6201033
000230 a7 48 28 bd ce 0b cc 3e 57 47 03 3f 69 6e 35 be
       -0.04108491 0.39852756 0.5128073 -0.177179
000240 62 d7 b9 3e 13 cd 61 be 22 5a 71 be 14 88 82 3e
       0.36297137 -0.22050886 -0.23569539 0.25494444
000250 e3 1d f5 3e 71 18 91 be b6 93 c4 be c5 85 94 3e
       0.47874364 -0.2833896 -0.38393945 0.29008308
000260 0d 83 4d be b6 87 3f 3e c4 47 1e bd 0b 60 4b 3d
       -0.20069523 0.18704113 -0.03864266 0.04965214
000270 e6 8a a4 bd 18 71 75 bf 8c bc 81 3e a2 26 1e 3d
       -0.08034305 -0.9587569 0.25339162 0.038611062
000280 d0 d5 40 3e da 51 c6 3e d4 97 40 3f 76 3e 65 bc
       0.18831563 0.38734323 0.7523167 -0.013991943
000290 e6 44 50 be bc 84 5c 3e 30 62 6e bc 04 ea 1c 3f
       -0.20338783 0.21535009 -0.014549777 0.6129458
0002a0 45 4b 5d 3f 0e 8d 16 3f f1 ae fd bd b8 a4 59 be
       0.8644298 0.5880898 -0.12386883 -0.21254241
0002b0 94 3d 21 3d b4 c7 13 3f 35 24 85 be 3f 4e 16 3f
       0.039365366 0.577266 -0.26004186 0.58713144
0002c0 eb eb da 3c a3 9c 8d bc 75 1e b3 be ad 3c 15 be
       0.026723823 -0.017286604 -0.34984174 -0.14573927
0002d0 ce 65 ab 3e a2 e8 58 3f 80 ba 52 bd a5 0a 4c bd
       0.33476108 0.8472997 -0.05144739 -0.04981484
0002e0 b6 d4 1b 3f 3f aa 24 be 8e 88 17 3c 29 31 c9 3e
       0.60871446 -0.16080569 0.009248866 0.3929532
0002f0 86 ca 91 3e 20 14 87 be 08 2d 8e be 40 46 d4 3e
       0.28474826 -0.26382542 -0.2776873 0.41459846
000300 e7 51 73 3d ac 36 87 3e 10 b1 ba 3d a6 e0 40 3e
       0.05940428 0.264089 0.09115803 0.18835697
000310 d3 84 a9 bb 9d 81 12 3f 23 a5 0e 3f ef 72 dd 3e
       -0.0051733046 0.57229024 0.5572073 0.4325175

sequential/dense_2/MatMul f4 [3, 10]
000000 b8 7c 9f 3f 43 bf 74 bf e7 eb 15 3e a8 17 8d bf
       1.2459936 -0.9560434 0.14640771 -1.1022844
000010 07 64 fe be d5 75 82 3c ad ca 10 3f 8a d8 86 3f
       -0.4968569 0.015925327 0.5655926 1.0534832
000020 31 3d dc bd 58 08 37 3f 06 cf 86 3e 49 72 71 3f
       -0.10753859 0.71497107 0.2632982 0.9431501
000030 fc 05 37 bf 08 44 6a 3e 8a 0c b2 3f d7 a3 a8 be
       -0.71493506 0.22877514 1.3910077 -0.329375
000040 4e bc 71 3f 9f 3c 1a bf aa a8 2e 3e fa 80 4c 3d
       0.94427955 -0.6024875 0.17056528 0.04992769
000050 01 5d 03 bf 83 85 23 3d 08 d0 19 3e b3 53 24 3f
       -0.5131379 0.03992225 0.15020764 0.64190215
000060 9d bb 84 bf 81 1c 86 3f 51 84 f3 be 29 4c b3 be
       -1.0369755 1.0477449 -0.47561887 -0.35019043
000070 f4 0e b7 bf 4a b8 47 bf
       -1.4301438 -0.7801558
